study_ai/learn_for_mnist/weight_and_bias_b1.npy (npy, 528 bytes, 1 tensors)

array f8 [50]
0	0x3fb5a9f938b202b9	0.08462484010852735
1	0x3fc5f7eb1a64b291	0.17162836827028063
2	0x3fc91590aa261a88	0.19597061451004927
3	0xbf9de1fd8c72f3ff	-0.029182397553757507
4	0xbfc26e0c53e9695c	-0.1439834031796846
5	0x3f93c2fd0edbcb85	0.019298509628196143
6	0x3f9f915a3cf75c5b	0.030827913256726052
7	0xbfa3972bcd9c274c	-0.03826271901023279
8	0x3fb5aa4e00814f7e	0.08462989342052471
9	0xbf5c71b74eb7dc8c	-0.0017360963928448074
10	0xbfb27cd679fd5ae4	-0.07221737364066488
11	0x3f965129c5c5d379	0.021793987938014212
12	0x3f8247ca2d809695	0.008925990594501424
13	0xbf903a3ca7829e20	-0.015847156261456274
14	0x3fbce1241cb47867	0.11281037998966924
15	0x3f9386ab169c6e02	0.019068406348294438
16	0xbf663305a59159cb	-0.0027098760879582288
17	0x3fb09f1b359f57a7	0.06492776927129161
18	0x3fbd099b7c8caa1e	0.11342784682043613
19	0x3fd061441f22666a	0.2559366516157754
20	0xbfa8d1dd3295c8b9	-0.04847613565915893
21	0x3fb89da24e073972	0.09615530400262687
22	0xbfc501d6d6d00f8e	-0.16411862839606467
23	0x3fc10ad6ba77cbf4	0.13314327340012222
24	0x3fb2f2b799bfe877	0.07401607040074674
25	0xbfc21cc22f18e1b7	-0.1415026407210129
26	0xbf884921e4f53d04	-0.011858238982908727
27	0x3fb8e95e2e62e20c	0.09731091148831456
28	0x3fc358201f07cd51	0.15112687602195732
29	0xbfc7af7135ef357a	-0.1850415719367609
30	0x3f7471cbde47f00f	0.004991337166298861
31	0x3fb6ad4be136057f	0.08858179329219772
32	0xbfa3a9d344872d73	-0.038405038943518564
33	0x3fbabb02a6efae72	0.10441605163185289
34	0x3fbc8a21a0f909c8	0.1114827173233045
35	0xbfba98a69c5973fd	-0.10389176671147023
36	0xbfc1f8c6ad65110d	-0.14040454355757284
37	0xbfc0845ed4c30405	-0.12903962506064218
38	0xbf95ee81d5c51096	-0.021417645142051876
39	0x3f7882fff50062ad	0.005984306175400062
40	0xbfce4a740962071d	-0.23664713342810098
41	0x3fc4f3c73208bd0a	0.1636895174319551
42	0x3fc09fa3f103533d	0.12987183826649043
43	0x3fbdd7691eed0b3a	0.11656815533664835
44	0x3fb15552de1c1910	0.06770818636514186
45	0xbfc1488878dbf569	-0.1350260343678358
46	0x3fbddc73e31453d7	0.11664509099894303
47	0x3f76c3ad42783680	0.005557705684180569
48	0x3fb44901af63bd2e	0.07923899204228199
49	0x3fbb002c205819d4	0.10547138013507801
