study_ai/learn_for_mnist/weight_and_bias_W2.npy (npy, 4128 bytes, 1 tensors)

array f8 [50, 10]
000000 c1 5f 76 80 4d a5 f0 bf 23 67 a4 20 f9 d3 e7 3f
       -1.0403571146070905 0.7446256291907257
000010 de 90 c4 61 bc 59 e5 bf c6 24 52 61 8e 7d f0 bf
       -0.6672040853050267 -1.030653362426436
000020 6c c9 dc 8f 82 ce d8 3f 37 99 2b 00 a8 5c d3 3f
       0.3876043705851291 0.30253028885489947
000030 53 ef 33 1e 96 d8 e4 3f 99 07 0c 84 86 94 ef bf
       0.6514387693309608 -0.9868805483858863
000040 a5 4a 7a ce 3b fb f2 3f 8e eb 3a 61 9e 6b df 3f
       1.1863363328490462 0.490943522406888
000050 5b b2 ee 25 c5 2c f2 bf f6 00 0d 16 19 81 c5 3f
       -1.1359302026495672 0.16800225807856578
000060 de 37 4b a0 69 0f ef bf 8e e6 c1 b3 bf e6 bd bf
       -0.9706314211596199 -0.11680219782456389
000070 dc 6c ae 80 c5 85 e9 bf e7 35 9b 05 99 ae ef 3f
       -0.7975795281703557 0.9900632009027363
000080 7c db dc 2f 14 33 d1 bf ae 90 7e db 52 c2 e3 3f
       -0.26874260591596744 0.617471150112143
000090 8c 34 fc cf 81 c4 e1 3f ee 8f 12 01 1d b3 ed 3f
       0.5552376806459889 0.928114416212791
0000a0 68 26 72 ba 25 24 e4 bf 8e 1a 44 17 6d ec b3 bf
       -0.629412521507402 -0.0778263265420753
0000b0 f1 5f d2 7f 06 e5 ef bf 16 be 3e a1 4b d0 e3 bf
       -0.9967072006720611 -0.6191766881292462
0000c0 c6 f8 d0 77 c0 a0 e3 3f c9 f2 94 6e 65 18 c5 bf
       0.6133730259096175 -0.16480701350692176
0000d0 20 45 63 ca 91 48 eb 3f fb 5d 82 b4 fb 02 e9 3f
       0.852608580864544 0.7816141629763814
0000e0 b7 85 c5 98 62 99 d6 bf e9 de 88 12 35 04 e3 3f
       -0.3531118862066153 0.5942635881428632
0000f0 6a 3b 81 f4 2f bc ea 3f 1f 03 af be a3 d6 dc bf
       0.8354720855221391 -0.4506005632538734
000100 58 e8 30 21 cf f3 f2 3f 38 b0 fd 46 a4 97 f1 bf
       1.184523706104775 -1.099521901424863
000110 d9 6a 20 6d ea 7e e6 bf c7 f3 d5 19 58 6f a4 3f
       -0.7029926425342082 0.039911988405016134
000120 34 a6 58 dd b0 9f ed 3f 22 b9 5e c7 74 21 e3 bf
       0.9257435153169298 -0.5978340047784381
000130 2e e1 a9 e9 04 89 b5 bf 0c d6 3c c1 f0 97 a1 bf
       -0.08412199692418618 -0.034362338627413974
000140 c9 86 cf 3c f5 42 de 3f 1a 19 15 a3 41 05 e1 3f
       0.4728367894987114 0.5318916497424511
000150 29 57 59 e9 67 4c d5 3f 1b a0 e2 ab f0 c8 c2 3f
       0.3327884463118261 0.14675720589480154
000160 da c3 88 0b ed c9 ee bf a3 ce 40 9c 13 b2 e3 bf
       -0.9621491647031875 -0.6154878665751834
000170 84 c6 a2 9a 26 20 f1 3f 08 66 26 6f 41 af ed bf
       1.070349315687424 -0.9276435061357811
000180 06 9a c1 fc ed 27 e3 3f b8 f5 26 22 06 f3 e4 bf
       0.5986242233892092 -0.6546660105738544
000190 89 f7 10 f8 d9 b0 e8 bf eb 68 c1 24 ae 41 da 3f
       -0.7715883107227778 0.41025880422024724
0001a0 f0 f8 87 d3 0e 7a e8 3f f6 0d d2 7a b4 20 e8 bf
       0.7648996478526708 -0.7539923094595327
0001b0 17 45 7e a4 94 5a f6 3f 45 3a af 4c d3 a9 a2 bf
       1.3971144128339057 -0.036451914893053806
0001c0 e4 10 95 d2 0a 22 dd 3f 45 51 f3 3b 51 13 dc bf
       0.45520277561833056 -0.4386790357068729
0001d0 eb e6 d4 e7 99 c1 c2 bf cd 3c 0e 1c 65 30 ec bf
       -0.14653323955445016 -0.8809075878106342
0001e0 1c 12 25 a0 6b 13 ef bf 74 f5 ae a4 20 d9 c0 3f
       -0.9711206558063767 0.13162620583708995
0001f0 a1 64 98 a5 6e df ce 3f bc 65 8f 53 1d 12 d2 3f
       0.2411936100550394 0.28235562477274434
000200 d0 19 13 9e 0f ac e6 3f 23 f4 72 d1 a0 b7 e9 bf
       0.7085035407442835 -0.8036655512620466
000210 bc d8 56 db 6c 64 e5 bf 3b e5 1e 0a 06 01 ec 3f
       -0.6685089382142659 0.8751249501866946
000220 e6 3e 86 f6 52 ba de bf 48 9c 28 16 e1 21 e7 3f
       -0.4801223189797227 0.7228856499467691
000230 da 45 47 a5 59 54 b5 3f a0 c9 da 78 27 79 d9 3f
       0.0833183315765135 0.39801966478548856
000240 55 c9 1d 5e ac 9d d7 3f a3 98 a8 46 dd d3 da 3f
       0.36899861517953997 0.4191811742806612
000250 1b c5 c3 22 db 02 f4 bf b6 ff 7f 76 c1 4a cd 3f
       -1.2506972654339907 0.2288438633549938
000260 8d 8c b4 eb 32 3d f3 bf b8 3a b4 d8 ee d4 da bf
       -1.2024411399113746 -0.4192463985681729
000270 9e a0 96 0c 5b 8a e6 3f f3 5b 32 ef 1a 5e e6 3f
       0.7043891187540969 0.6989874526797152
000280 ef 57 6a a5 6d a2 da bf e4 67 ad f3 77 83 dc bf
       -0.41616383699272225 -0.4455242042218954
000290 68 f3 de 72 e5 c7 c2 bf 2b a2 8d 42 dc 84 e1 bf
       -0.14672535046511404 -0.5474683093899037
0002a0 9f 14 c9 1b 05 82 e3 3f 01 a5 12 a2 38 7e d1 bf
       0.6096215765652636 -0.27332893207001524
0002b0 d0 2e 23 6e b7 5a 7b 3f 7d 31 31 ad 84 c2 ec 3f
       0.00667831089431177 0.8987449057254221
0002c0 11 f5 dd bb bc c5 e8 bf f3 39 3c 30 4b 8a f1 3f
       -0.7741378468778369 1.0962631115140737
0002d0 d9 37 46 ba 01 e0 d7 3f b1 37 3e 50 c7 e8 df bf
       0.37304728690003014 -0.4985826762793933
0002e0 5b f5 53 d9 c5 3e f2 bf b4 34 9a eb 0f 63 ea 3f
       -1.1403254022000826 0.8245925523384785
0002f0 a4 95 45 c2 fa 55 d5 3f 83 0a 84 a8 80 db b6 bf
       0.3333727738557519 -0.08928684343485753
000300 ef ca 7a 45 cd ed f3 bf c2 ab fa 3f ae 5c dd 3f
       -1.245557090191763 0.4587817787930214
000310 d3 33 3f 15 e2 cf d7 3f 5f 74 3c c6 76 3c e5 3f
       0.37206317973033015 0.6636308547782724
000320 1b 72 8a 17 ea c1 e0 bf b3 6e 7a 5d c4 21 f7 3f
       -0.5236711940556832 1.4457439090246396
000330 01 5b 7e 1b e4 bc e8 3f 45 05 ea 2e cb 09 eb bf
       0.7730579888328465 -0.844945518140016
000340 0a 9e 17 71 9d f3 a9 3f fa 3d 85 b0 72 36 bb bf
       0.05068676000137991 -0.10629956063825566
000350 be a3 65 25 6e ab d6 bf 89 47 3f c5 bd 06 ec 3f
       -0.3542132725911492 0.8758229114994133
000360 85 bf 67 00 7a 19 e6 bf 72 12 27 f0 2b b2 e3 bf
       -0.6906099327006677 -0.6154994669419251
000370 76 b0 b0 f5 a6 77 da 3f 19 d1 be ee 76 a1 cd bf
       0.41355298989470357 -0.2314900079487721
000380 f6 2c f0 33 d9 68 f1 3f 9c a4 cb 74 45 13 d3 bf
       1.0880977658114808 -0.2980512276249756
000390 a7 e8 be 7f e0 a7 c9 bf d5 f3 c7 f9 f1 3f df 3f
       -0.20043569791397894 0.4882779063480574
0003a0 16 36 39 e6 d0 28 f5 3f 92 eb 3a d0 ae 0a f0 bf
       1.3224648469071147 -1.0026081212988385
0003b0 aa d3 f5 87 9f d3 ec bf ea 25 58 5a 2e 7f e4 bf
       -0.9008329062913749 -0.6405250324762026
0003c0 dd 6d a1 d1 5a 3b be 3f 3b 37 f5 3e 43 53 e0 3f
       0.11809318178114077 0.5101639012952782
0003d0 37 29 b0 6b 69 06 e9 3f 64 d2 6d 22 1e 3a e0 3f
       0.7820326903613822 0.5070944473687402
0003e0 dc f2 70 bd ad c3 cc bf b5 73 55 a2 3f da d8 3f
       -0.22472163915690302 0.388320835618113
0003f0 e5 c9 ab 60 a5 f8 ed bf 9c 59 39 c4 f3 33 e1 bf
       -0.9366022956949648 -0.537591822862669
000400 06 e8 69 36 ff 2c 95 3f 37 1f f8 63 16 39 e3 bf
       0.020679462143085935 -0.6007186844371749
000410 32 40 cd 3e 77 cf f4 3f 08 01 fb 6b 5d e9 f5 bf
       1.3006508305734426 -1.369473859595077
000420 75 6a ab a6 72 58 ba bf 50 f7 33 29 d5 8f f4 bf
       -0.10291210717279305 -1.2851153954975025
000430 2d 69 be 78 ac 74 e0 3f ba f2 66 58 c3 f2 c9 3f
       0.5142423971440501 0.20272104088316728
000440 f8 e8 cb 1a 4d 2c dd bf 1d 69 4c 69 8a 03 d5 3f
       -0.45582893006179814 0.3283411052995165
000450 89 44 9c d4 2c 5c d2 3f b9 05 27 bc 76 ac e1 3f
       0.2868759228013649 0.552302710995881
000460 9e 14 3b 89 7f 15 e3 bf 2b 22 aa cb 34 0c b9 3f
       -0.5963742904938447 0.09784250232963447
000470 fb fb 89 26 8e 16 da bf fb ec 20 a5 4a f0 cd 3f
       -0.4076266647679742 0.23389561713143067
000480 c7 88 13 57 08 f6 ea 3f f3 e5 b0 09 cf 6f f0 3f
       0.8425332737645242 1.027297056060317
000490 bb ea c7 c5 01 35 dc bf e4 9f 96 7a 74 d0 ce 3f
       -0.4407352858976698 0.24073654161224944
0004a0 f7 cf d0 8c 2b 3e e6 bf f0 3f 2b 11 41 64 d3 bf
       -0.6950891256624335 -0.30299402882246707
0004b0 53 dc bc 05 d5 70 f2 bf 09 bc 3a cd 72 8b d7 3f
       -1.15254690400413 0.3678862575715703
0004c0 f3 b0 58 1e a8 22 af 3f 66 da 90 71 80 3d c5 3f
       0.06081128473701538 0.16593938393789925
0004d0 5a b6 6d db e4 41 d6 3f 25 bf c4 e6 de 5f c0 3f
       0.34777184895106006 0.12792574184413144
0004e0 38 ac e2 ec 0b 45 c1 3f d5 da 94 83 95 03 f5 bf
       0.13491963450118916 -1.3133750095272962
0004f0 14 74 0c 93 21 28 d9 3f 78 e2 4f 47 46 ad eb 3f
       0.39307441101283414 0.8649016754926171
000500 10 40 24 56 ab f9 e9 3f 5a 55 d1 6e 2f b0 e1 bf
       0.8117272074177908 -0.5527569927605029
000510 36 85 14 ba 0e c2 98 3f dd b4 08 86 c1 db ee 3f
       0.024177770717078682 0.9643256776668313
000520 2d c0 c7 61 ed a7 e6 bf 31 ca 38 85 58 ed f8 3f
       -0.7079989347239511 1.557945747754854
000530 cf 4f 05 bb 96 72 e9 bf fc 7f 44 d5 15 3e ad bf
       -0.7952378895520215 -0.057114298137321357
000540 60 35 96 ac f1 16 e1 bf b0 b9 20 0f 79 a3 e5 bf
       -0.5340507860980033 -0.676205186411428
000550 1a da 65 6e cc 1e e3 bf d2 44 90 d0 85 12 d9 bf
       -0.5975095897873104 -0.39175553672346297
000560 50 80 5c d5 27 d6 ed 3f b8 66 99 9e fe 1f b3 bf
       0.9323920409406217 -0.07470694896746977
000570 f7 4b 0d 1c 1b 08 e5 3f 15 60 8d 7d d9 e6 ea bf
       0.6572394893540822 -0.8406798793976146
000580 30 b2 04 fa f9 ce c7 3f 5b b7 b0 07 3b d5 eb 3f
       0.18600392063071203 0.8697791242791298
000590 3e 66 fb ca 5a 05 f2 bf 1d 96 09 7c ca e1 dd 3f
       -1.1263072899804594 0.4669061862281028
0005a0 92 89 b7 a0 a5 12 c7 3f be 93 7c bb 86 7e db bf
       0.1802565607786844 -0.42959755238763
0005b0 f0 1f 44 ae 3e e5 e0 bf cf bf e2 e8 68 94 f7 3f
       -0.5279839900622374 1.4737328621958914
0005c0 9f af 4b 38 a3 10 e0 3f f9 3f e8 33 58 d6 df bf
       0.5020309543156037 -0.49745755261483243
0005d0 73 81 26 5d 22 2d cb bf 91 a4 3f f9 46 43 d4 3f
       -0.21231488750801084 0.3166062769001395
0005e0 df 4d cc 4a f6 d6 f2 bf 0e 2e 25 5b 07 df da 3f
       -1.1774809762763352 0.4198625936594177
0005f0 56 07 2c 8d 2d 99 cf 3f 06 3c 4c 7d 1b 45 d3 bf
       0.24686211960948395 -0.30109297977554694
000600 80 54 9d de 57 36 f9 bf b1 c4 73 c7 0e 60 c3 bf
       -1.5757673927194276 -0.15136894930723124
000610 a5 e8 3d e4 80 21 f3 3f 72 5e 73 72 69 9e e9 3f
       1.1956795612045792 0.8005873904575778
000620 86 76 a9 dd 20 5c e6 3f 68 86 8a 47 e5 60 d8 bf
       0.698746140416646 -0.38091403948246816
000630 72 94 ce e0 1f 7b e4 bf c0 fc 82 4f 00 a5 bb 3f
       -0.6400298491249841 0.10798646870806561
000640 4d ae 9d 85 62 6c f0 bf 02 6d 47 ec cf 34 d9 3f
       -1.026461145341176 0.3938484008228472
000650 26 f6 61 37 70 f6 e2 3f 2e f9 4b 7a 70 e4 f1 3f
       0.5925828057949658 1.1182713296144118
000660 62 ca 06 3c 0e 07 d3 bf 01 96 10 55 7c e2 fa bf
       -0.2973056398579158 -1.6802943537562671
000670 36 da 3f 27 41 c3 c0 bf cb 80 80 a2 4d 78 d6 bf
       -0.13095869461513282 -0.35109272832233945
000680 e1 69 a4 88 0f 35 eb 3f 7d 1c 75 59 54 80 e2 3f
       0.8502271336358797 0.5781652209488041
000690 c8 ac 4d 40 02 59 f0 bf 01 7b 7f d6 a8 93 e8 3f
       -1.0217306625225309 0.7680248441136827
0006a0 53 fd 4f dd 8e b6 b0 3f f0 5f d1 4b b4 ab f1 3f
       0.06528561499725542 1.1044199906955292
0006b0 9a d4 3f 06 ff 91 e2 bf 03 96 c4 24 9c 17 f1 3f
       -0.5803218004281405 1.0682641445395127
0006c0 84 0d 16 65 7f c5 f1 bf 21 2a cf 66 19 53 e0 3f
       -1.1107171963384141 0.5101439483635809
0006d0 c3 95 d0 ab 62 83 c1 3f 11 fb 10 c5 34 11 ed bf
       0.13682206525224502 -0.908350357909372
0006e0 31 95 f2 0d 89 f2 df 3f f2 c1 f7 61 65 60 e8 bf
       0.4991781841475414 -0.7617670930322318
0006f0 2f 60 07 7e 0a 35 ca 3f d1 b5 cb 3e 00 3d cd 3f
       0.20474368242025906 0.22842410150717155
000700 d9 89 b8 0b 32 93 e1 3f c5 53 c1 40 ba 69 ba bf
       0.5492181996272009 -0.103175774392482
000710 4c 9d 8c 28 54 94 c1 3f 9e d5 03 d7 a6 03 ff bf
       0.13733913402504994 -1.938391532804736
000720 50 f4 00 fd 0d d4 e1 3f c7 64 02 3d 20 27 e2 3f
       0.5571355763892232 0.5672761146153328
000730 18 fd f6 32 be 4c ef 3f 1a 71 dc b9 a0 10 b4 3f
       0.978118037739395 0.07837872064232379
000740 9a 48 82 40 e1 c2 e8 3f 0a 35 6a 84 6e 4a e2 bf
       0.7737890491428232 -0.571585901854321
000750 86 c7 41 21 df cc d3 bf 5d cf 05 05 cc 03 e5 bf
       -0.30937937019108863 -0.6567134950732726
000760 f3 18 82 af 39 90 a5 3f 3a 60 78 d2 5a 4e ef 3f
       0.04211597697671889 0.9783147917505695
000770 04 ba 19 5e d6 5c f0 bf ec b3 ec 1c 16 66 d3 bf
       -1.0226653743553706 -0.30310585808439217
000780 6d 1b ea 8c 92 72 74 3f ea b1 16 b3 27 ee f7 3f
       0.00499207731502947 1.4956433292055586
000790 13 5e 53 b5 49 49 eb bf 28 b5 22 e6 47 b1 db bf
       -0.8526962796703991 -0.43269536470582404
0007a0 05 4b 8d b7 fa ae da bf 49 81 fa b2 b7 72 f4 3f
       -0.41692989277832765 1.2780072203969033
0007b0 89 39 82 b4 fe af a0 bf 93 09 04 8e 99 94 77 3f
       -0.03259273484683251 0.005756950209845252
0007c0 f8 6b f6 ec c0 e0 ef bf 7d 25 0a f3 3c 6d 8a bf
       -0.9961857441115844 -0.012903667609196695
0007d0 46 a3 07 c4 ae 88 ec bf ff 37 1c a6 f8 83 e3 3f
       -0.8916848972995488 0.6098597759571475
0007e0 7a cc 39 be e9 f2 dc 3f 07 0b 75 f9 68 94 b3 bf
       0.4523262365029904 -0.07648330774558697
0007f0 01 da 69 82 3a b4 ea 3f 67 9a 0e 2d 10 7c e1 bf
       0.8345005557192168 -0.5463944320698148
