study_ai/learn_for_mnist/weight_and_bias_W1.npy (npy, 313728 bytes, 1 tensors)

array f8 [784, 50]
00000000: daad 9c8f c71f 853f 2c71 161b 48d9 80bf
00000010: 160c f713 8172 3dbf 80d1 eb8b b057 683f
00000020: 0e10 8772 48be 82bf 896b c7f0 2ac9 68bf
00000030: 43ed 5998 0c71 3a3f 3fd7 60e4 cd32 6cbf
00000040: c713 c5ce c2c0 8b3f 8e47 b4cf 1900 71bf
00000050: 477e 95c4 6cfb 86bf aa25 7a2f 1791 71bf
00000060: 68a6 568b 913f 8a3f 4100 12b0 d97c 88bf
00000070: f03c b948 9231 7dbf d7a1 76be 8d0a 6cbf
00000080: df21 528e 77d1 823f ffe6 4f54 97ba 5ebf
00000090: 65d5 1158 6fab 963f 7168 de4e f980 93bf
000000a0: 853d 3e40 c20f 6abf 5cdf 3fb8 ff85 87bf
000000b0: 8374 acca 3689 863f 6fb9 d849 8377 86bf
000000c0: 75eb 35d3 62c3 6ebf 2836 a679 5119 97bf
000000d0: 2791 eb21 94aa 76bf 98e8 a46a b999 013f
000000e0: 5106 c390 999f 623f 37e2 5aa2 fa5b 73bf
000000f0: b6b4 e4ed b136 843f 12e8 1ece 149d 723f
00000100: 03fa 2051 d7ec 873f 6dc6 9a0f 2dc6 8e3f
00000110: f312 dae6 5329 723f a9d0 cdc0 beb4 75bf
00000120: 88a7 11ae 7f78 8b3f 1329 5df4 d1b5 6abf
00000130: 6d83 bea3 0756 743f 00d9 c95a 5f74 943f
00000140: ee31 3fb1 7951 443f 6980 6e52 45ff 8ebf
00000150: 492b b65a d3e7 863f 5710 3eeb ad41 94bf
00000160: eed2 589b bb82 6fbf 9f85 55fc 09cb 71bf
00000170: 1c04 58f5 0a03 923f 9315 6488 9d7d 883f
00000180: 288e f07e 9a30 823f dff5 0ac1 09e7 533f
00000190: d872 9787 b9e7 7dbf 030b aba0 4fbe 8f3f
000001a0: d028 252a 4bd8 88bf 3fb0 4373 b66f 7b3f
000001b0: 31b6 ffe9 c035 893f 76e3 b120 e30c 8abf
000001c0: 7862 c298 6893 43bf 53b0 647c 9fe5 8fbf
000001d0: 5726 e4da 810f 683f 141a 3929 82ca 60bf
000001e0: 5802 c16e 25b5 803f ae6d f729 9d53 743f
000001f0: 8e4e ad0e 9623 853f 713f bd33 3c6d 243f
00000200: 384f 6631 e515 723f ae98 fa5b 0cee 83bf
00000210: 7646 2da4 9527 903f 5a50 c86a f08f 803f
00000220: 72ad aeaa 0dc3 7dbf 97f2 723d bcc5 713f
00000230: eda4 fabf fe5f 613f 1b71 4691 c132 9cbf
00000240: dc8c 6d3c 7dd3 80bf efde 8deb 61e5 85bf
00000250: 2b4d 666d da23 54bf 5b81 ce1b 27d2 893f
00000260: 0303 360c f49e 63bf c91b 9be6 6d33 8dbf
00000270: 3eb5 a1f0 ac4a 743f 67ce 270c 2dfb 7e3f
00000280: 851e b2c5 d5a6 80bf 182a 1531 880f 723f
00000290: 0042 7fd8 1df3 843f a544 ad98 f47e 81bf
000002a0: fb36 6883 63eb 6b3f b18b a89e 12d9 863f
000002b0: 4e51 65b0 f571 603f 0e2c 9d7c 5099 8f3f
000002c0: 841c 97f5 2a99 82bf 2e42 ac4e a6e5 623f
000002d0: 5c0a f41a f006 813f c740 a11b 59e8 68bf
000002e0: 2935 cce2 de72 5f3f a842 541d 76e5 88bf
000002f0: b7d5 c1f4 98f8 88bf af07 2cb0 aae0 57bf
00000300: bdf9 ca24 436c 91bf 9b3e 6654 a73a 403f
00000310: 0c18 95ed 1683 48bf 29e6 f58e d2f6 93bf
00000320: 8e51 49b9 d5fb 593f 0d80 d31b a60a 80bf
00000330: 370c d255 8c24 913f 7ba4 f340 d33f 653f
00000340: 8ee8 87a2 0177 6cbf 91ae a357 2cb5 74bf
00000350: c1f5 6c3e 9b28 6c3f 602f 00c0 bb8f 4b3f
00000360: 45b9 1c51 2d36 553f 54f5 ae4f c271 83bf
00000370: d003 c00f 8f72 88bf 20ca 1019 2b8c 5c3f
00000380: ce9c bbbd fae1 58bf f5fb b5ce 9b03 613f
00000390: 519f d1f3 7b07 923f 001e 3563 f538 84bf
000003a0: 634b 632f 52b4 9ebf 041f 362b 268d 5fbf
000003b0: 31a0 6a7c 356c 7bbf 8aac e48e 9e11 7ebf
000003c0: 90db 228d a562 8abf 0eb5 a2ba e23e 86bf
000003d0: c8e0 3a77 1146 76bf 47e3 f722 9295 773f
000003e0: 8dac 1232 f0eb 92bf d98e 0118 6cd5 73bf
000003f0: 32b3 661d 061e 8bbf a829 b64a 702b 82bf
00000400: ff46 795b 9f29 3fbf 9f93 f0b9 bae7 8c3f
00000410: 5b24 962d f2e0 8bbf ea69 bf52 4083 91bf
00000420: 1e08 4911 bbbb 703f d815 77bb de54 983f
00000430: e85d 16e7 2893 7bbf 2eab 85d4 5b4e 3ebf
00000440: 6adf f33d abdd 6cbf b601 0dbf 61d5 74bf
00000450: c5d2 e3a4 e389 65bf c800 9d54 bdee 893f
00000460: 6450 9346 c3e6 83bf 4097 dbc5 e3fe 72bf
00000470: 3a27 da64 a53e 7a3f be53 a1e0 8f66 773f
00000480: 979a 8cb3 3443 6ebf 4862 b3b5 b2e8 71bf
00000490: 0c7e 7395 0351 81bf 3ca5 ab00 622f 7c3f
000004a0: b6e9 e5bb 371d 903f 78f3 14c6 9ea6 803f
000004b0: b55b 3c4b 7692 683f f09b 9094 61f8 733f
000004c0: e5de ee42 ed60 713f 1512 fb55 7859 903f
000004d0: 91a2 e0b3 1a47 81bf 870a eaf1 00e8 6cbf
000004e0: 81b5 95ea d214 6dbf 3c62 1cc7 fbfc 52bf
000004f0: feca 832c f7b2 81bf 61f3 1511 c702 8bbf
00000500: 6589 7185 1d09 85bf 8f36 658f 02f9 853f
00000510: cae3 6f30 b86e 95bf 6eed a36a f25a 6e3f
00000520: 0f0f 2e14 721c 63bf ef9b 85ac b702 743f
00000530: 0d4c b93c 130c 803f 7f61 f946 b847 74bf
00000540: a4a0 c69f 6341 453f fb4d d731 6551 8ebf
00000550: 11ff 193c 82db 723f ce97 5612 7a5a 783f
00000560: 239f c37d 5b45 513f a1b7 7ab4 8ae3 85bf
00000570: 98a0 16aa 2201 883f ada6 1823 745f 6e3f
00000580: c563 6372 9f22 92bf fb4d 5fcf 9a39 81bf
00000590: 7ad0 b8ae 5c22 84bf 8994 cf86 20b5 7c3f
000005a0: 9b2d b251 5848 65bf a191 9eab 3ce9 813f
000005b0: edf6 759f 6144 4dbf e03b 8468 fc29 8b3f
000005c0: fbd4 1602 0c47 403f aa6c e48f 2d95 24bf
000005d0: a921 5d78 0e07 58bf 6134 6ec4 e86c 74bf
000005e0: 75ae 6734 c047 563f 0b7b af7e c393 91bf
000005f0: 732a 2f5a fe81 513f 6b33 7906 d4c3 603f
00000600: 1d05 c075 f2f6 823f 0a68 9d0d 15b4 8d3f
00000610: 2130 d0a7 866d 913f 91a8 03fb ab82 92bf
00000620: 3b03 b1ab 01e1 873f 189b 3e8c 3b70 62bf
00000630: 0183 a62a c90d 763f 936f ee41 5455 8dbf
00000640: e5d0 58a7 8d4c 3e3f 6386 9b9e 6795 903f
00000650: b395 dbbc fda0 723f 4df4 fe54 42f0 923f
00000660: 1aa5 f73f 7e44 9c3f 8869 fb24 a53d 32bf
00000670: 2fda b84d 6586 90bf e744 1541 593c 85bf
00000680: adf6 50aa d4db 893f cf78 fa94 44b1 83bf
00000690: b71e 313f b184 87bf 0444 f500 0da9 683f
000006a0: 1cc0 f7fc 7add 413f 5855 59ba a7da 61bf
000006b0: f6ab fdea 28fb 8abf d1ab 219c 393a 903f
000006c0: b502 34ef 019e 5a3f 5053 d27b b6df 59bf
000006d0: c4f7 02f4 d1b3 7b3f bbb0 4b5c ae32 87bf
000006e0: 41c2 72fc fd62 79bf c8c1 8215 8641 873f
000006f0: 7561 acaa ca31 923f c7f9 ac7e 8638 81bf
00000700: 973e 28b7 5543 31bf f39f e12a f969 8f3f
00000710: 12cf 3545 c4b1 46bf 5c05 d5b1 0c35 76bf
00000720: 6989 b731 4d7f 4d3f 7d7f bc7d 2022 60bf
00000730: 1686 88ed b268 73bf 9398 1428 e22c 633f
00000740: 287d 897a dc5f 69bf 017c 19b4 f4df 8d3f
00000750: c8e8 cbc2 1867 893f f3a8 0381 fb86 513f
00000760: 6f74 deed c078 81bf ef22 bc27 2cc6 803f
00000770: ee91 8e1b 3b91 7b3f 2981 0e58 2671 8b3f
00000780: a0a1 b6c4 f8cd 2bbf 40d8 4e6e a17f 60bf
00000790: 1f54 15b1 797c 57bf 0c13 4d6d d5e3 8c3f
000007a0: fc46 9511 9b43 613f 7750 3b16 4c42 733f
000007b0: df62 8f89 18fd 75bf e1a1 9408 ed75 54bf
000007c0: 65ad 1ef0 c21f 733f 2e84 a9ff 774c 603f
000007d0: c704 fff0 ad4d 8cbf 9255 530c 00d4 753f
000007e0: 9ec3 14de ccdb 84bf 63b2 a7ac 1550 84bf
000007f0: 6131 c298 9692 69bf 71b8 558d 08da 8abf
0.010314520902816083 -0.008226931883478082 -0.0004493298656280132 0.002971501176370406 -0.009151998515228878 -0.003025611751792782 0.00040346677301502184 -0.003442194111836466
0.013551256117929967 -0.0041504867797516175 -0.011221742390886592 -0.004288759773439047 0.012816559853337142 -0.011956883130778919 -0.0071273531171549415 -0.003423001140351749
0.009188589125430134 -0.0018755414796473577 0.022138347387643437 -0.019046683729904538 -0.003181342502962261 -0.011486051378582544 0.011003902492627176 -0.010970140162581214
-0.003755276696833782 -0.022557519006616428 -0.005533770220356871 3.3570261921815256e-05 0.0022733687711429603 -0.004726389922943989 0.0098699475025462 0.00454433562293312
0.011682207263331362 0.015026428259577085 0.004433944455404004 -0.005299325112776789 0.013413426875746884 -0.003260526721452392 0.004964856951034641 0.01997517577771024
0.0006200641823795297 -0.01513532789050505 0.011184359746740606 -0.019781796916064156 -0.003846517963007271 -0.004344023710787153 0.01758973238429827 0.011958342289754486
0.008881766318217535 0.0012147517447112994 -0.007301068043912472 0.015499708262159744 -0.012131297324817686 0.006698334404273309 0.012309558049277221 -0.01271989291693541
-0.0005974064565804202 -0.015574689849550937 0.002937081931240464 -0.002049688549763626 0.0081580089973851 0.00496255294953178 0.01032178146639431 0.00015584335221285496
0.004415412220982344 -0.009731384808514622 0.015776003022728045 0.008087042101614528 -0.007266095529227955 0.0043389657141089865 0.0021209693512288436 -0.02753736924351911
-0.0082158836427823 -0.010691418648760968 -0.0012292512015833017 0.012607865844814261 -0.002395130782759104 -0.014258249855073306 0.004954028650997087 0.007563758818367106
-0.00813071260041843 0.004409343718473589 0.010229333085505665 -0.008542929562880561 0.0034081405276599175 0.011156220881337693 0.002007465230386674 0.01542914276401144
-0.009081206912823221 0.0023067711057438633 0.008314014265583917 -0.003040479697155349 0.0019194771404643185 -0.012156412859014878 -0.012192912072559332 -0.0014573733212164088
-0.017014550324114575 0.0004952733077505268 -0.0007480489686393379 -0.01949624059259328 0.0015859210153808842 -0.007832811092555425 0.016740982759540137 0.0025939107941793083
-0.003474715417039204 -0.005055592739363527 0.0034373314005324567 0.0008411089656887687 0.001294655089121814 -0.00949432187723668 -0.011937253635553008 0.0017424031141329913
-0.0015187214511856342 0.002076916037992311 0.01760667491581042 -0.009874264803001687 -0.02998474516136741 -0.0019257424108633523 -0.006694992952056154 -0.0073410218886166365
-0.01288346611941707 -0.010862132378259417 -0.005437916017108253 0.005757876249384015 -0.018478158050737426 -0.004842207185081293 -0.013240859768154676 -0.00887191513063075
-0.00047550335464051347 0.014113863753729748 -0.013612644210995997 -0.01710224633266392 0.004085283977987712 0.023761253540006994 -0.006732139373887482 -0.00046243421504381626
-0.003523668725048103 -0.005086309262708635 -0.0026292272733548804 0.012662390846913132 -0.009717488852779073 -0.004637613046474531 0.006407400198108532 0.005713045140585514
-0.0036941556285399846 -0.004372308812172827 -0.008455303190600304 0.006881125281077257 0.015736456721677526 0.008130302829721478 0.0029995260646375707 0.004875546620531232
0.004242827227180367 0.015966301200721917 -0.008436401953148905 -0.003528596730860759 -0.0035499686679744684 -0.0011589487807609619 -0.008642130895599728 -0.013188891610065036
-0.010271292338249702 0.010728855134085861 -0.020930173832286937 0.003705476255275001 -0.0023328998663049226 0.004885404087281649 0.007835531511920757 -0.0049512098626894865
0.0006486641355438927 -0.014803686698463095 0.004603871087624404 0.00594566044074969 0.0010541337460895992 -0.010687907822411637 0.011720915618596714 0.00370762522722575
-0.017710200649933023 -0.008410653546810023 -0.009831165392008002 0.007008673722315292 -0.0025979733450804516 0.008745645511063329 -0.0008931614565168257 0.013263675632087357
0.0004967507012937628 -0.00015703374078488336 -0.0014665261564506904 -0.0049866764519609095 0.0013598801611988374 -0.017165236098544628 0.0010685905369764131 0.0020465031737217274
0.009260076731154638 0.014503635862343617 0.017019371025568945 -0.018076598354050125 0.011659634639842422 -0.0022507823031959855 0.005384240920108808 -0.0143229086514152
0.0004623266061998379 0.016194933944353795 0.004548064387312522 0.018494640767802207 0.0276050306837635 -0.00027833253714750665 -0.01613767897489476 -0.010369012163808878
0.012626325080528156 -0.00961545543333067 -0.01148355936142252 0.003010297201094138 0.0005452013519384766 -0.0021794582305953263 -0.013174361869195277 0.015847110895645337
0.001624585999536671 -0.001579216200558526 0.006763286714145115 -0.011327135268821889 -0.006197921880059244 0.011355445414978585 0.01776806513507397 -0.008408594837985185
-0.00026341288244766933 0.015338846799025396 -0.0006925781585054044 -0.0054216857800509465 0.0009001852917516598 -0.001969397982875819 -0.004738520562143763 0.0023407380218883416
-0.003097468016036626 0.014587318178369559 0.012403672642438926 0.001069779977167115 -0.008531100520310112 0.008190484011281167 0.006730299844012395 0.01339940983035655
-0.00021213208888793984 -0.0020139840075570625 -0.0014334858318154687 0.014106433294395447 0.002107432240031735 0.004701897825459259 -0.005368324135780893 -0.0012488188534210897
0.004668961979329954 0.0019895881389833314 -0.013820036809081405 0.005329132259438112 -0.01018486073243868 -0.009918374377741295 -0.003121656545834892 -0.013111178219983284
